weight.npy (npy, 1432 bytes, 1 tensors)

array f8 [163, 1]
000000 6d d7 f9 39 c0 5f 35 40 fb 5f e7 21 91 13 dc 3f
       21.37402689313551 0.43869427023810176
000010 77 d2 1c 47 9c 7a eb bf ba bb a8 8f 0d c9 eb 3f
       -0.8587170971791939 0.8682925992815094
000020 14 e5 d5 9d 97 25 f5 bf 35 90 bd 80 41 15 bf bf
       -1.3216777959299337 -0.12141808884695211
000030 84 da 1d 6d 74 5b ee 3f b5 9e 52 cd 25 f3 e5 bf
       0.9486639147933862 -0.6859311113557484
000040 05 18 ae 26 46 5a f0 bf d5 e8 e6 f9 5c 92 fa 3f
       -1.0220395575465784 1.6607332002445692
000050 a9 65 41 8c a8 0c d5 bf 3e fd f7 fd ef 6c c2 3f
       -0.3288976068193628 0.1439495077210981
000060 2f a7 bc 41 bd 07 b3 3f 35 03 0b a0 29 07 bb 3f
       0.07433684210687085 0.10557804257679211
000070 51 63 a0 2e 07 f9 a2 bf 4d e3 a9 fa f6 29 91 bf
       -0.037056183282578765 -0.016761645364087575
000080 df 2d a0 98 21 55 c7 bf 31 ba 81 fd 2e 00 c5 3f
       -0.18228549911906008 0.16406810167559763
000090 76 81 c8 2e c1 94 e0 3f a2 ff 7c 9c 18 60 aa 3f
       0.5181585229620811 0.051514405348370276
0000a0 9c de ff a1 f5 9d 97 bf 5b 3e c3 55 01 b9 b0 3f
       -0.02306350518480703 0.06532295554938498
0000b0 db 99 10 4b ff 5f c4 bf 6a 26 93 b7 56 80 c3 3f
       -0.15917960324550404 0.15235408748258134
0000c0 c4 84 20 a5 b8 ca 95 bf df fa d6 8e 78 eb c4 bf
       -0.021281132772973846 -0.16343600248907017
0000d0 b7 1e e7 b5 6d 0b b4 3f 7f bc 95 20 30 da d9 3f
       0.07829938593851692 0.4039421385013568
0000e0 94 f0 48 7d de c3 d4 bf 49 d2 5c 5a 08 80 d8 3f
       -0.32445490107398567 0.3828144915053469
0000f0 cf ff 69 f1 de a0 d0 bf 10 71 41 ea 77 1f d3 3f
       -0.25981877875892406 0.2987956798222209
000100 18 6d d1 89 03 f8 d2 3f 62 9b b3 28 b3 f0 df bf
       0.2963875623588179 -0.4990661523319685
000110 9e 6c 56 c3 e7 04 b6 3f 1b 57 67 04 c2 c8 c6 3f
       0.08601234930977106 0.17800164427779283
000120 e8 74 c4 a6 6b f2 b5 3f 5e 1b 6d ac 39 33 ba 3f
       0.08573029347867911 0.10234413585304256
000130 30 45 27 77 0b 5b b0 3f 79 79 7d 67 15 0e cd 3f
       0.06388923319834272 0.22699229768017995
000140 8e c1 8b 7e 75 a5 d5 bf b9 dd 5a 75 a9 ff c1 bf
       -0.3382238136100789 -0.14061468343946418
000150 6a 44 a3 50 5c 33 d1 bf da e4 35 f6 ab 47 af bf
       -0.2687598025777961 -0.06109368687152435
000160 5c dd e2 20 7c da a2 3f b5 da 8f e2 0e 70 df bf
       0.03682315732424499 -0.49121448636234827
000170 e3 c5 28 71 02 a7 d4 3f 3c b2 1c ff 56 6d cf bf
       0.3226934533186904 -0.24552428681035277
000180 ab 4e 06 a4 1e 2b ce bf c7 9f ae 87 81 4d ed bf
       -0.23569090851798555 -0.9157111787835611
000190 ce 56 72 86 33 dc e1 bf 99 fb 0e 38 ba 5c cc bf
       -0.5581300378714447 -0.2215798162196421
0001a0 13 7d ce a3 99 95 e3 bf 76 39 ee 0a 90 b1 f2 bf
       -0.6120117377612665 -1.1683502604460876
0001b0 0f 21 ad b6 06 c0 e6 3f 18 cd 7e 89 8e 4a ae bf
       0.7109407012840466 -0.05916257313165313
0001c0 d6 7f 65 91 db 03 d7 bf 1a b4 fc 0e 20 5b c7 3f
       -0.3596104545485991 0.18246842128556368
0001d0 75 91 4f 4f ff 18 ed 3f 5b 33 b4 bb 7c 62 e1 3f
       0.9093014287032434 0.5432723680583921
0001e0 8d 2b f4 65 78 4b d6 3f ec 43 ed 13 3f 7a d6 3f
       0.34835634190010795 0.3512113279912785
0001f0 d4 74 0f 25 5d a9 e6 3f a7 3f d5 5c d2 0d f4 3f
       0.7081742976985432 1.253374445561329
000200 30 13 b4 5c 03 01 83 bf c6 fb 62 b4 4c a8 d2 3f
       -0.009279276148399157 0.291522194060175
000210 8d f5 23 7e 31 7b cc bf a1 96 ca 26 42 76 d4 bf
       -0.22250956210329456 -0.3197179201909908
000220 4c 88 66 c0 e6 51 9a bf 5c 84 79 37 38 d6 e1 bf
       -0.025703053944774276 -0.5573998530854953
000230 90 fe 91 e0 ad c9 dc bf 29 3c 08 48 ff 93 ca bf
       -0.44980952196781576 -0.20764151589580251
000240 80 0a da 0e a5 24 fd 3f bd a4 81 89 cb cd cd 3f
       1.8214464740891856 0.23284286703282034
000250 46 1b 70 37 eb c9 cb 3f 1e fd 5f 60 16 3d e9 bf
       0.21709957320146084 -0.7887069589923248
000260 c7 a8 d1 70 82 26 f2 3f 13 65 37 c3 7d 81 ce bf
       1.1344017416945904 -0.23832675964403247
000270 7a 3b ae 5c 5e 18 f0 bf 93 55 8b 7d 0a 4b f0 3f
       -1.0059493656478637 1.018320551307032
000280 3f d5 8a b4 db fd b1 bf ae 93 bc 86 e8 a5 ed 3f
       -0.07027981908580204 0.9265024787497305
000290 af ee 91 5c 28 5b e3 bf 32 50 7b 9e d3 cb c9 bf
       -0.6048776443489795 -0.20153279531825913
0002a0 a4 a5 e6 fc d1 91 0c 40 95 80 ce 4f 8e 65 0f c0
       3.5712013013732804 -3.9245878443617337
0002b0 e8 3c f2 3c f5 37 d6 bf d6 45 38 b3 be 50 20 40
       -0.34716540290624076 8.15770492612766
0002c0 32 6f 45 d5 0e 74 22 c0 58 75 66 6e 76 ee d9 3f
       -9.226675667501329 0.4051796033980586
0002d0 7e 86 2d ea 2f a7 2f 40 e5 40 9a 34 39 95 b3 3f
       15.826537435586257 0.0764957192825509
0002e0 78 77 3d f9 9c ef 93 bf c1 fb 81 ac 42 cb b7 bf
       -0.019468739235314086 -0.09294525825133261
0002f0 c8 b3 62 c8 e7 56 94 3f d9 88 b1 4f e6 b7 bc bf
       0.01986276779705401 -0.11218108602182343
000300 53 54 a4 f7 74 63 ba 3f 63 f2 cb 34 c0 15 a3 3f
       0.10308009191460714 0.0372753204773957
000310 06 d2 f4 d5 20 d3 b4 bf 4f 29 9a ba 42 86 c4 bf
       -0.08134656165641027 -0.16034731017527767
000320 aa 0d e9 9f 99 f6 bc bf a8 d5 01 2b 9d b6 d2 3f
       -0.11313781885205879 0.29239587020796387
000330 be 52 b0 86 64 cd c7 3f 57 40 de 75 69 8d e3 bf
       0.18595558716392263 -0.611012201510685
000340 fb 3d 27 6b bc fc e8 bf 8a d4 da af cc 3b f5 3f
       -0.7808515637242971 1.327099501545748
000350 5f 5c 6d 06 a7 ae f9 bf e3 07 7a bd cb 1c dc 3f
       -1.605139756303991 0.4392575598104697
000360 7d fd 3c d1 20 66 de 3f 57 cd 45 8a 27 9d e0 bf
       0.47498341020033036 -0.5191838932645777
000370 d9 23 a8 86 d4 95 e3 3f 5a a1 19 f6 e6 ce c0 bf
       0.6120398168578688 -0.13131415382964456
000380 74 68 44 5b 9e a2 b9 bf d0 86 db fc ce c9 93 bf
       -0.10013761261180482 -0.01932452600784168
000390 84 6e e3 f7 ec 9f bb 3f 6b d1 b3 78 74 b1 cb bf
       0.1079090218731214 -0.21635299581215447
0003a0 c1 64 1c 71 be d2 d0 3f ae 49 5c 6e c0 de d0 3f
       0.26286278768527543 0.2635956838359118
0003b0 4b 99 a9 81 3f c1 d6 3f 27 20 af 02 d4 b7 d3 bf
       0.35554492628434237 -0.3080949808322679
0003c0 73 5f ad b4 5f 4e c3 3f 89 9a 26 28 dd fa db bf
       0.15082928011065241 -0.4371865169618237
0003d0 50 0d 6d cd 44 dc a9 bf 44 a1 03 41 eb 79 d5 3f
       -0.05050864226952945 0.3355663428215119
0003e0 24 c0 08 26 e1 a6 b3 3f 96 1b 12 dc 09 fd d6 bf
       0.0767651288849725 -0.35919424525530397
0003f0 97 11 08 8b f9 ab c3 bf c0 1b 30 05 15 01 a8 bf
       -0.15368575371406898 -0.04688325584725517
000400 bb 3e 7a ea 78 13 d2 3f 1e a6 8f 17 1b b3 a2 bf
       0.2824384965724495 -0.036522719026674574
000410 93 8b 3f 6f 05 a6 c6 3f f1 76 09 63 cf 9c a3 3f
       0.1769415658191887 0.03830574115703012
000420 e6 16 6e 43 47 47 c5 3f 7d e0 1a 76 96 67 cf bf
       0.1662377433059909 -0.24534874693722833
000430 85 c6 db 58 24 4d bd 3f eb 36 f6 37 1a 58 9b 3f
       0.11445834321400568 0.02670327154697009
000440 b2 6e 0a 34 4b 8e c8 bf 52 ff 18 4f 75 17 b8 bf
       -0.19184246102382968 -0.09410794430823202
000450 1d c7 bd c0 90 4a b6 3f 0b a4 8b b1 2c ca c6 bf
       0.08707527833555813 -0.1780448786660432
000460 6d 91 e3 a3 77 34 a6 3f 9a fa b1 fb 7b c8 77 3f
       0.04336904407117257 0.005806431111635613
000470 4c 93 9b 61 d0 73 4d 3f af ec 39 d3 3b 2b cd bf
       0.0008988158690185015 -0.22788188756735425
000480 68 d1 bd 8c 02 cf a8 3f 2d 6a ac b2 de 98 c7 bf
       0.04845436065707781 -0.18435271953861002
000490 fa 2a a4 cf df ea c1 bf b8 af 0b cd 28 2a d0 3f
       -0.13998029364332593 0.25257320426930674
0004a0 b8 b9 cc 73 13 7b b7 3f 70 a1 75 e2 39 01 bb bf
       0.09172174050465898 -0.10548745898052458
0004b0 d1 f2 01 10 8b e1 b5 bf 15 9e ac cc aa c3 a2 bf
       -0.08547276631174873 -0.036649072155622665
0004c0 c8 ee 23 65 6d b8 86 bf 5e 52 18 5b 56 fe c1 bf
       -0.01109395470529452 -0.1405742592620695
0004d0 45 bb d3 a7 a3 3b 98 bf 2f 43 dc bf 81 b8 c8 3f
       -0.02366500579676802 0.19313070171531296
0004e0 57 88 e2 a6 d8 60 c3 bf ba 73 b6 6c 95 f0 cd bf
       -0.15139301441837702 -0.23390453155744045
0004f0 43 7d 66 79 1c 4f ae bf 79 4d ae d8 af 02 d7 3f
       -0.059197320765856286 0.35953899536362816
000500 62 05 56 c1 44 d9 68 bf 69 36 95 b4 fb 61 d5 bf
       -0.00303328922990491 -0.3341054214005
000510 8c b7 59 28 2f 67 cb 3f
       0.21408643217312961
